…
Start training model: bakt, embtype: qid_accumulative_attn, save_dir: models/bakt_tiaocan_assist2015/assist2015_bakt_qid_accumulative_attn_models/bakt_tiaocan_assist2015_42_0_0.3_256_256_2_4_0.5_0.5_0.5_50_64_256_4_2_0.001_0.9_6_5_0_1, dataset_name: assist2015
model_config: {'dropout': 0.3, 'final_fc_dim': 256, 'final_fc_dim2': 256, 'num_layers': 2, 'nheads': 4, 'loss1': 0.5, 'loss2': 0.5, 'loss3': 0.5, 'start': 50, 'd_model': 64, 'd_ff': 256, 'num_attn_heads': 4, 'n_blocks': 2, 'learning_rate': 0.001, 'sparse_ratio': 0.9, 'k_index': 6, 'stride': 5, 'use_wandb': 0, 'add_uuid': 1}
train_config: {'batch_size': 64, 'num_epochs': 200, 'optimizer': 'adam', 'seq_len': 200}
2023-02-22 12:13:22 - main - said: init_model
model_name:bakt
model_name: bakt, emb_type: qid_accumulative_attn
model is BAKT(
  (q_embed): Embedding(100, 64)
  (qa_embed): Embedding(2, 64)
  (model): Architecture(
    (blocks_2): ModuleList(
      (0): TransformerLayer(
        (masked_attn_head): MultiHeadAttention(
          (v_linear): Linear(in_features=64, out_features=64, bias=True)
          (k_linear): Linear(in_features=64, out_features=64, bias=True)
          (dropout): Dropout(p=0.3, inplace=False)
          (out_proj): Linear(in_features=64, out_features=64, bias=True)
        )
        (layer_norm1): LayerNorm((64,), eps=1e-05, elementwise_affine=True)
        (dropout1): Dropout(p=0.3, inplace=False)
        (linear1): Linear(in_features=64, out_features=256, bias=True)
        (activation): ReLU()
        (dropout): Dropout(p=0.3, inplace=False)
        (linear2): Linear(in_features=256, out_features=64, bias=True)
        (layer_norm2): LayerNorm((64,), eps=1e-05, elementwise_affine=True)
        (dropout2): Dropout(p=0.3, inplace=False)
      )
      (1): TransformerLayer(
        (masked_attn_head): MultiHeadAttention(
          (v_linear): Linear(in_features=64, out_features=64, bias=True)
          (k_linear): Linear(in_features=64, out_features=64, bias=True)
          (dropout): Dropout(p=0.3, inplace=False)
          (out_proj): Linear(in_features=64, out_features=64, bias=True)
        )
        (layer_norm1): LayerNorm((64,), eps=1e-05, elementwise_affine=True)
        (dropout1): Dropout(p=0.3, inplace=False)
        (linear1): Linear(in_features=64, out_features=256, bias=True)
        (activation): ReLU()
        (dropout): Dropout(p=0.3, inplace=False)
        (linear2): Linear(in_features=256, out_features=64, bias=True)
        (layer_norm2): LayerNorm((64,), eps=1e-05, elementwise_affine=True)
        (dropout2): Dropout(p=0.3, inplace=False)
      )
    )
    (position_emb): CosinePositionalEmbedding()
  )
  (out): Sequential(
    (0): Linear(in_features=128, out_features=256, bias=True)
    (1): ReLU()
    (2): Dropout(p=0.3, inplace=False)
    (3): Linear(in_features=256, out_features=256, bias=True)
    (4): ReLU()
    (5): Dropout(p=0.3, inplace=False)
    (6): Linear(in_features=256, out_features=1, bias=True)
  )
)
2023-02-22 12:13:22 - main - said: train model
ts.shape: (102749,), ps.shape: (102749,)
Epoch: 1, validauc: 0.7038, validacc: 0.7459, best epoch: 1, best auc: 0.7038, train loss: 0.5444640286742106, emb_type: qid_accumulative_attn, model: bakt, save_dir: models/bakt_tiaocan_assist2015/assist2015_bakt_qid_accumulative_attn_models/bakt_tiaocan_assist2015_42_0_0.3_256_256_2_4_0.5_0.5_0.5_50_64_256_4_2_0.001_0.9_6_5_0_1
…
